src/trainedModel/dnn.pt (torch, 16847 bytes, 12 tensors)

hidden1.weight f4 [44, 22]
0.029151551 -0.4266774 -0.22471765 0.25314748 -0.13723993 0.15733105 0.3389016 0.0064352374
-0.038663425 0.16195746 0.60500664 -0.16859189 -0.0011352381 -0.0026558698 -0.05443131 -0.43816376
0.32636327 -0.24008279 0.21918018 0.1531233 -0.2057686 -0.52385294 0.1745116 -0.017989589
0.35797828 0.111551374 -0.116140716 0.1814037 -0.09264898 -0.17801172 -0.116334364 0.22367425
-0.1094391 -0.17623118 -0.00051943987 -0.34687185 0.20988281 -0.50203073 -0.26230824 -0.34263185
-0.06038938 -0.20126323 -0.21436895 -0.02316512 -0.36841914 0.28990966 -0.21817264 0.08549054
-0.083450034 0.13279514 -0.19584887 0.05651466 0.035855614 0.30190438 0.28387627 0.21382077
-0.0008051073 0.07245861 0.24785444 -0.13366711 0.8108604 0.22771963 0.19907765 0.077611834
0.0903705 0.01811406 -0.106893346 -0.0032267293 0.1518038 -0.16823058 -0.053700443 0.07207747
0.3877224 -0.061290637 0.09413354 0.19584675 0.07901535 -0.010384273 0.3992394 -0.04022747
0.21894173 0.08329641 -0.31586498 -0.08879891 0.07458877 0.21366571 -0.16532962 0.026186213
0.18005952 -0.050725967 -0.32002223 -0.11941329 0.302207 -0.20084241 -0.098120935 0.07152687
0.046828985 0.23266988 -0.32523742 -0.27561682 0.0035694793 0.38394633 -0.04147305 0.11878449
0.21381316 -0.48283058 -0.2430142 -0.024473716 0.09789939 -0.046344794 -0.032120675 0.2039402
-0.024078839 0.1466964 -0.38303918 -0.065997414 0.07811487 0.026321357 0.044484597 0.27521506
0.30703652 0.008935507 0.00013427636 -0.2566596 0.15297557 0.10710802 -0.67581564 -0.07398638
0.09545848 -0.083753705 0.31868163 -0.39516455 0.2668584 0.027645102 -0.0029836064 0.04658544
0.19516945 0.20120808 -0.13277663 0.27673584 0.067700155 0.06833696 0.06760825 -0.023007993
-0.046133883 -0.111534506 0.33462468 -0.22145441 0.7848402 0.39403933 -0.19000351 0.36723155
0.18227525 -0.41392905 -0.17350678 0.22002634 -0.6957892 -0.086861365 -0.040275805 -0.3200754
0.1653479 0.17568873 0.09808987 -0.22137547 -0.7228384 -1.0842211 -0.0071969116 -0.013334717
-0.01364184 -0.24467205 -0.4599212 -0.6404223 -0.16476922 -0.15151381 -0.5627919 0.12395164
-0.024549283 -0.2737425 0.04676538 0.14290968 -0.3390678 -0.053386763 -0.018913891 -0.019975575
0.05251719 -0.24161057 -0.16118528 0.23860326 0.0024162407 0.3166368 -0.045845896 0.31066558
-0.09361442 0.042379156 -0.30974466 0.39095888 -0.10950007 0.19920942 -0.32858592 0.25452098
0.11076213 0.06921013 -0.0999146 0.044729065 -2.4150286 -0.0006195056 0.034047913 -0.53171337
0.24323978 0.049706906 -0.0011107759 0.13369672 -0.309708 -0.322644 -1.3119782 -0.32940033
-0.14018565 -0.045651216 0.048185155 -0.5510292 -0.017303994 0.0076512736 -0.007173166 -0.005101831
-0.002654912 0.0038035172 0.00483493 0.00096897717 0.061438624 -0.15667957 -0.15005633 -0.1783569
-0.17383596 -0.15718913 -0.23637004 -0.23259017 -0.24140039 -0.25396246 -0.23299325 -0.14204392
-0.20047417 -0.20322323 0.0307351 0.060110517 -0.1275665 -0.08049488 -0.07101512 -0.032448065
0.35053462 -0.2031039 0.11711549 -0.14313981 0.1199425 0.46356446 0.0048404997 0.25960442
00000000: 3ccf ee3c 7675 dabe 621c 66be 8c9c 813e
00000010: a088 0cbe 641b 213e 8384 ad3e afde d23b
00000020: 8a5d 1ebd 2dd8 253e b7e1 1a3f 5aa3 2cbe
00000030: 45cc 94ba 1a0e 2ebb 5ef3 5ebd 0057 e0be
00000040: 1619 a73e 43d8 75be c570 603e 5bcc 1c3e
00000050: 01b5 52be 3a1b 06bf 2bb3 323e e75e 93bc
00000060: ee48 b73e 0c75 e43d 2fdb edbd e4c1 393e
00000070: c0be bdbd b448 36be b640 eebd dd0a 653e
00000080: 9b21 e0bd f275 34be 052b 08ba 3099 b1be
00000090: 85eb 563e 1685 00bf 444d 86be 716d afbe
000000a0: db5a 77bd f317 4ebe 8983 5bbe c7c4 bdbc
000000b0: 6fa1 bcbe 0a6f 943e a668 5fbe aa15 af3d
000000c0: dae7 aabd 73fb 073e 9b8c 48be eb7b 673d
000000d0: 56dd 123d 3693 9a3e 3b58 913e d5f3 5a3e
000000e0: d60d 53ba 2e65 943d 8ecd 7d3e 08e0 08be
000000f0: 8c94 4f3f 562f 693e 03db 4b3e f4f2 9e3d
00000100: 2b14 b93d f063 943c e6ea dabd 8977 53bb
00000110: 7572 1b3e a344 2cbe fff4 5bbd 5a9d 933d
00000120: 8d83 c63e e40b 7bbd 16c9 c03d 0d8c 483e
00000130: cdd2 a13d cc22 2abc 1b69 cc3e 8fc5 24bd
00000140: 4332 603e 4f97 aa3d 0eb9 a1be 34dc b5bd
00000150: ffc1 983d 2fcb 5a3e 2b4c 29be 7884 d63c
00000160: 8661 383e 08c6 4fbd f4d9 a3be f48e f4bd
00000170: e0ba 9a3e a2a9 4dbe a1f3 c8bd ae7c 923d
00000180: c0cf 3f3d 0341 6e3e 8585 a6be a61d 8dbe
00000190: eded 693b 9d94 c43e a5df 29bd 4845 f33d
000001a0: d6f1 5a3e 9235 f7be b7d8 78be 1a7d c8bc
000001b0: 7a7f c83d 0ad4 3dbd f890 03bd b3d5 503e
000001c0: fc40 c5bc 9537 163e b61d c4be a729 87bd
000001d0: b0fa 9f3d e39f d73c 7b35 363d fde8 8c3e
000001e0: e433 9d3e 3c66 123c 89cc 0c39 e368 83be
000001f0: a1a5 1c3e 735b db3d 4102 2dbf 2c86 97bd
00000200: bc7f c33d 1087 abbd 3d2a a33e 0253 cabe
00000210: aaa1 883e fb77 e23c 9c88 43bb 60d0 3e3d
00000220: 80da 473e 7e09 4e3e 99f6 07be 52b0 8d3e
00000230: 61a6 8a3d 40f4 8b3d 3276 8a3d 427b bcbc
00000240: e2f6 3cbd 346c e4bd ed53 ab3e f2c4 62be
00000250: 4aeb 483f 86bf c93e 4890 42be c605 bc3e
00000260: 5da6 3a3e 82ee d3be c3ab 31be 964e 613e
00000270: 3e1f 32bf 5fe4 b1bd 3ef8 24bd ece0 a3be
00000280: f650 293e bfe7 333e 57e3 c83d 40b0 62be
00000290: f00b 39bf c2c7 8abf 12d4 ebbb db79 5abc
000002a0: 0682 5fbc 4f8b 7abe cb7a ebbe b7f2 23bf
000002b0: 43b9 28be 7026 1bbe 2113 10bf 5cda fd3d
000002c0: 941b c9bc fa27 8cbe 0e8d 3f3d ea56 123e
000002d0: 4b9a adbe 14ac 5abd 4ef1 9abc d1a3 a3bc
000002e0: 441c 573d c368 77be c10d 25be 6a54 743e
000002f0: cb59 1e3b 381e a23e e8c8 3bbd 8f0f 9f3e
00000300: ebb8 bfbd c495 2d3d da96 9ebe c32b c83e
00000310: 9341 e0bd 8efd 4b3e 6a3c a8be 9350 823e
00000320: 41d7 e23d 0abe 8d3d 07a0 ccbd d335 373d
00000330: d48f 1ac0 5166 22ba d375 0b3d 5e1e 08bf
00000340: d913 793e 7899 4b3d 7497 91ba cbe7 083e
00000350: 0c92 9ebe 9831 a5be e7ee a7bf 29a7 a8be
00000360: d48c 0fbe c5fc 3abd cc5d 453d 4010 0dbf
00000370: 1bc1 8dbc 89b7 fa3b e10c ebbb 432d a7bb
00000380: 08fe 2dbb 6e44 793b 556e 9e3b f502 7e3a
00000390: 11a7 7b3d 9c70 20be 5ea8 19be 31a3 36be
000003a0: 0e02 32be 30f6 20be fd0a 72be 1e2c 6ebe
000003b0: aa31 77be 5e07 82be c895 6ebe f673 11be
000003c0: 1a49 4dbe c019 50be 2dc8 fb3c 7236 763d
000003d0: cba0 02be 80da a4bd 6070 91bd 43e8 04bd
000003e0: 4679 b33e 78fa 4fbe 3fda ef3d 3e93 12be
000003f0: 6aa4 f53d 5258 ed3e 0e9d 9e3b dfea 843e

hidden1.bias f4 [44]
-0.13619107 0.06107302 -0.259074 -0.38237324 -0.095199935 -0.26061743 -0.46358243 0.1068051
-0.25868893 0.0034804104 0.53019047 -0.4678919 -0.4490543 -0.5156772 -0.40309116 0.22800301
-0.3603346 -0.5175485 -0.033011734 0.0195905 0.007584659 -0.23972148 0.009272821 -0.30970302
-0.27487853 0.3442039 -0.37009037 -0.5492489 0.47858298 -0.29576695 0.20947157 -0.4571909
-0.3152276 -0.35429 -0.039290935 -0.27171606 0.3977751 0.22641443 0.24689898 -0.518775
-0.07702298 -0.41289255 -0.024287634 -0.5453763
00000000: ac75 0bbe b427 7a3d 59a5 84be 6dc6 c3be
00000010: 2ff8 c2bd a66f 85be ad5a edbe a2bc da3d
00000020: e072 84be 9917 643b 90ba 073f 878f efbe
00000030: 72ea e5be 6c03 04bf f761 cebe 9f79 693e
00000040: c77d b8be 0f7e 04bf 5037 07bd 427c a03c
00000050: bb88 f83b 8c79 75be 08ed 173c 6591 9ebe
00000060: e1bc 8cbe 7e3b b03e 7c7c bdbe 939b 0cbf
00000070: d408 f53e c46e 97be b77f 563e ed14 eabe
00000080: 8365 a1be 8065 b5be 88ef 20bd 5e1e 8bbe
00000090: 2ea9 cb3e 2fd9 673e 16d3 7c3e 70ce 04bf
000000a0: 39be 9dbd a766 d3be dcf6 c6bc c89d 0bbf

hidden2.weight f4 [29, 44]
0.018359357 -1.2620345 -0.31973568 -0.08046406 -0.07769463 -1.5899042 -0.19767742 -0.07009385
-0.007128493 0.062034935 0.96166766 0.09347379 0.032436058 -0.064473726 -0.029838827 0.14416282
0.051630855 -0.2286189 0.013873352 -0.02740358 -0.63242877 0.009094719 0.12812084 -0.009116979
-0.0021252737 -0.48471007 0.08662527 -0.020114714 -0.12939851 0.062114608 -0.04763583 0.026968189
-0.016895326 0.10678245 -0.0008067586 -0.103732385 0.015887462 0.40694055 -0.009608268 -0.16470928
-0.06511794 -0.048356093 -0.088401616 -0.5100915 -0.026705638 -0.13896936 -0.63643813 -0.014286739
-0.023857841 0.0070210667 -0.059460495 -0.035208687 -0.003514244 -0.35288367 3.034732 -0.0058994065
-0.6720669 -1.0259098 -0.20466378 0.020491721 0.012309661 0.019250166 -0.0047330544 0.09976062
0.021916611 -0.707243 0.018090544 -0.033285532 -0.05048151 -0.10551346 -0.16193454 -0.0375126
0.0024875116 -0.5417032 -0.076045364 -0.053749427 0.085392386 0.023759678 -0.3753622 -0.1865551
-0.037031636 0.07949116 0.032152135 -0.14737572 0.1760997 -0.6326818 -0.40697992 0.06767587
0.33662346 -0.0033538004 -0.051780675 -0.062490743 -0.014714329 0.05613617 0.15494806 -0.052983075
-0.011514619 -0.09044576 -1.4487069 0.24652335 0.002541449 -0.014896397 -0.1675081 0.009654922
0.10824509 -0.053302806 -0.03383074 -0.10011138 0.03988795 0.07050998 0.0022340429 0.22160077
0.072370194 -0.17736623 0.048137214 0.06276638 -1.0139791 0.046092916 0.17514929 0.0946544
-0.06869566 0.2734588 0.04655869 0.25896347 -0.10768485 0.030796612 0.018625576 0.8348482
-1.3648872 0.005429749 0.030448029 0.018687904 -0.03862176 0.0069127292 0.02139629 -0.13547818
-0.0733988 -0.044838693 0.02545826 -0.19038893 -0.1578787 -0.022538004 -0.773018 -0.85793805
0.12794909 -0.45158976 0.11803663 0.11325589 -0.03949825 -1.2299118 -0.13544187 0.018954642
0.01634191 -0.07492112 -0.21700455 -0.3066413 -0.015442848 1.9573132 -0.14959261 0.0052965507
0.26498482 0.01659945 -0.06446656 0.0015352056 0.13422598 -0.808049 -0.051803928 0.024110083
0.073565304 0.0118209105 -0.04261225 0.085867934 0.05392517 0.009412289 0.21504678 -0.07059214
-0.70432556 0.8653475 0.20701659 0.32869977 -0.15392143 0.12653285 0.2569515 -0.562556
-0.13013446 0.7576655 0.9861651 -0.11177481 0.11914608 -1.1972796 0.96211404 0.36008993
-0.06364452 -0.5895878 0.21059953 0.0029729074 0.07113124 0.086759195 -0.524812 -0.13170467
-0.41683483 -2.5248046 -0.29917702 -0.8785548 -0.3989832 -0.4494718 0.2703949 -0.25747618
-0.083636194 -0.5794378 -0.21469805 0.103064135 -0.41153225 -0.39915726 0.130331 -0.03597289
-0.7040781 -0.35799754 -0.18003397 -0.0760703 -0.08589808 0.08001758 -0.026228398 -1.5680594
-0.0045691235 -0.0217517 0.054486923 0.02852117 -0.8641207 -0.08052566 0.2040133 -0.14590615
-0.17074375 -0.093468376 -1.2319431 0.18354031 0.09141079 -0.5200021 -0.023145119 0.018303955
0.0056319833 -0.070351005 0.053221747 -0.07219011 -0.033616204 0.6350483 -0.41845345 0.0008105206
0.05969744 0.011423604 0.2488856 -0.01352503 0.0077690496 -0.3189231 -0.02522364 -0.098239616
00000000: 5d66 963c 598a a1bf 65b4 a3be 57ca a4bd
00000010: 5d1e 9fbd fb81 cbbf f36b 4abe 5d8d 8fbd
00000020: 2296 e9bb 5818 7e3d da2f 763f 306f bf3d
00000030: acdb 043d cd0a 84bd 8e70 f4bc 6b9f 133e
00000040: e07a 533d 131b 6abe 0e4d 633c 797d e0bc
00000050: dae6 21bf 0402 153c 1c32 033e 625f 15bc
00000060: 2d48 0bbb eb2b f8be 9768 b13d 9dc7 a4bc
00000070: 0b81 04be e36b 7e3d ca1d 43bd 64ec dc3c
00000080: 1168 8abc c2b0 da3d a77c 53ba a571 d4bd
00000090: 6c26 823c 835a d03e ff6b 1dbc 8da9 28be
000000a0: 8e5c 85bd 0a11 46bd e80b b5bd 5b95 02bf
000000b0: c8c5 dabc fc4d 0ebe 9ced 22bf ed12 6abc
000000c0: 8571 c3bc fa10 e63b d98c 73bd fc36 10bd
000000d0: 3b4f 66bb 2bad b4be 0d39 4240 cf4f c1bb
000000e0: 940c 2cbf 0351 83bf 6293 51be 41de a73c
000000f0: 76ae 493c 86b2 9d3c bd17 9bbb 4c4f cc3d
00000100: 778a b33c e10d 35bf 9f32 943c 6956 08bd
00000110: b3c5 4ebd 7117 d8bd 2bd2 25be d0a6 19bd
00000120: 8505 233b 10ad 0abf acbd 9bbd 5c28 5cbd
00000130: 34e2 ae3d a8a3 c23c 792f c0be 4d08 3fbe
00000140: 7cae 17bd 43cc a23d f5b1 033d a9e9 16be
00000150: 7b53 343e 6ff7 21bf ac5f d0be a699 8a3d
00000160: e959 ac3e 6fcb 5bbb f917 54bd 4bf6 7fbd
00000170: 5e14 71bc 0aef 653d b4aa 1e3e c804 59bd
00000180: d0a7 3cbc a03b b9bd 3a6f b9bf 9e70 7c3e
00000190: 708e 263b 0410 74bc 3e87 2bbe ae2f 1e3c
000001a0: 9aaf dd3d 0b54 5abd 1a92 0abd 3207 cdbd
000001b0: 8c61 233d 8967 903d 0569 123b 50eb 623e
000001c0: d336 943d 7e9f 35be 872b 453d a98b 803d
000001d0: 11ca 81bf edcb 3c3d 565a 333e 2bda c13d
000001e0: 4fb0 8cbd cb02 8c3e 53b4 3e3d dc96 843e
000001f0: e089 dcbd 2d49 fc3c aa94 983c 9db8 553f
00000200: a0b4 aebf 09ec b13b 256e f93c 6017 993c
00000210: da31 1ebd 2d84 e23b 4647 af3c cbba 0abe
00000220: 1c52 96bd c7a8 37bd d78d d03c 51f5 42be
00000230: f4aa 21be 9fa1 b8bc 82e4 45bf d4a1 5bbf
00000240: 1605 033e c636 e7be 30bd f13d b4f2 e73d
00000250: ebc8 21bd c06d 9dbf 46b1 0abe c446 9b3c
00000260: 78df 853c 3f70 99bd 7136 5ebe 1700 9dbe
00000270: 0004 7dbc 3d89 fa3f ce2e 19be b08e ad3b
00000280: 17ac 873e 92fb 873c 0b07 84bd f438 c93a
00000290: 8972 093e 4ddc 4ebf 5b30 54bd 8282 c53c
000002a0: 68a9 963d 7eac 413c 2f8a 2ebd 87db af3d
000002b0: a4e0 5c3d 0036 1a3c 3935 5c3e 9d92 90bd
000002c0: ae4e 34bf 6a87 5d3f 28fc 533e 564b a83e
000002d0: 949d 1dbe d491 013e 268f 833e ac03 10bf
000002e0: f841 05be 5ef6 413f 5175 7c3f 31ea e4bd
000002f0: dc02 f43d 7540 99bf 1b4d 763f b55d b83e
00000300: 0f58 82bd 3aef 16bf 67a7 573e 1cd5 423b
00000310: 41ad 913d ceae b13d 145a 06bf 97dd 06be
00000320: 606b d5be 6696 21c0 bb2d 99be f8e8 60bf
00000330: 8747 ccbe 2b21 e6be 3371 8a3e ebd3 83be
00000340: 7449 abbd 0956 14bf ced9 5bbe 4a13 d33d
00000350: 5bb4 d2be 575e ccbe 7d75 053e 4f58 13bd
00000360: 763e 34bf 744b b7be d35a 38be bfca 9bbd
00000370: 55eb afbd 42e0 a33d f0dc d6bc 2cb6 c8bf
00000380: 96b8 95bb 9f30 b2bc ae2d 5f3d 3ba5 e93c
00000390: 0437 5dbf a3ea a4bd dde8 503e 6c68 15be
000003a0: 73d7 2ebe 596c bfbd 50b0 9dbf fef1 3b3e
000003b0: 9535 bb3d dc1e 05bf d59a bdbc 2df2 953c
000003c0: 808c b83b 3014 90bd 0cff 593d 69d8 93bd
000003d0: 25b1 09bd 8692 223f 883f d6be 1e79 543a
000003e0: 4e85 743d 112a 3b3c dedb 7e3e 1698 5dbc
000003f0: 8393 fe3b e349 a3be cfa1 cebc da31 c9bd

hidden2.bias f4 [29]
0.024282735 -0.024186494 -0.15617982 0.0040583583 0.41718355 0.044894334 0.030327607 0.1337144
-0.007066807 -0.020859456 0.4081672 -0.08830132 -0.19582947 -0.060357 -0.00071417703 0.04006442
-0.07188573 -0.04883423 -0.114042215 0.055370722 0.050790403 -0.12050398 0.14547467 -0.12911443
-0.050355107 -0.027893277 0.00790316 -0.10191001 -0.15760782
00000000: 96ec c63c c122 c6bc 9aed 1fbe fafb 843b
00000010: 1599 d53e 1fe3 373d 9a71 f83c 6dec 083e
00000020: ac90 e7bb 73e1 aabc 4bfb d03e 53d7 b4bd
00000030: 8587 48be e738 77bd 9c37 3bba 971a 243d
00000040: d338 93bd 6706 48bd f78e e9bd 69cc 623d
00000050: 9909 503d caca f6bd 50f7 143e 9336 04be
00000060: 2841 4ebd 7180 e4bc 417c 013c 32b6 d0bd
00000070: f263 21be

hidden3.weight f4 [20, 29]
-0.099087045 -0.048758052 -0.17411497 0.2693547 0.3077939 0.39227068 -0.37079898 0.26108354
0.14211854 -0.34749216 0.1163198 -0.28019056 0.26256388 -0.21312064 0.20677729 -0.12876078
-0.067634165 0.09740109 0.0463894 0.048058845 -0.85420316 0.098292276 -0.11870051 -0.20649752
-0.5402096 0.052634556 -0.37818745 -0.21914476 0.11896911 0.72352886 -0.841789 -0.20293166
-0.08913371 -0.07833404 0.6909624 -0.84630287 0.02872193 -1.0967939 0.3727769 0.06010146
-0.24022184 -0.37268603 0.7158086 0.08589397 0.56347936 -0.4780323 -0.18184188 0.23361842
0.20800316 -0.3753201 -0.6792567 -0.007207955 -0.0073428988 0.3070704 0.4534611 0.13613544
-0.21917923 0.36227176 2.1465497 -0.17099603 0.78791034 -0.58313 0.6709182 -2.3130012
1.1529473 0.33277678 -2.131734 -0.5065469 0.09958233 -0.32623413 -0.24327707 0.058675736
-0.028429702 1.5467104 1.0999908 0.74771845 0.010242873 -0.98313737 2.3730214 0.4532992
1.9954671 -0.087551765 -0.4267649 0.9907105 1.3980726 3.1832075 -1.362038 0.20115732
-1.3295265 0.24054861 1.0845848 0.0766046 -0.4252013 -0.27613848 0.108637474 0.5357728
0.096838914 0.61893284 -0.18963823 0.13403352 -0.12675154 0.15212713 -1.0160469 0.13914376
-0.6961755 0.120167896 0.12781742 -0.098007165 -0.03250115 0.07979017 0.04932329 0.44206834
-0.54899275 0.92932254 0.036499355 0.10164911 -0.54795325 0.27181178 0.07905807 0.3454618
0.19266586 0.3002852 -0.056297485 0.24971887 -0.038528003 -0.18489309 -0.116526894 0.08153668
-0.016767735 -0.18719292 0.13615708 -0.20210075 0.24220489 -0.08954366 -0.046643533 0.035847858
0.03006395 0.08286905 0.048390597 -0.05925693 -0.32081348 0.25885075 -0.1295861 -0.029958343
0.09360239 -0.34885946 -0.21335201 1.4211661 -0.7215377 0.31186858 -0.0144580575 -0.4989819
0.027324961 -1.0231781 -0.15499604 0.177484 -0.0012287815 -0.28569326 -0.2885228 -0.2824133
-0.11106945 -0.3345804 -0.39559287 0.07713389 -0.09348914 -0.3655351 0.34720272 -0.046166915
-0.25685117 0.02173522 -0.8271013 0.3274173 0.13418046 -0.015240507 0.62275475 -0.62279457
-0.15584119 -0.3125818 -0.0630773 -0.120653525 0.23179492 -0.38125446 0.30923948 -0.21372664
0.014014848 0.095914826 0.10293328 -0.44148684 0.22454497 -0.25728187 -1.4845335 0.055050112
-0.39181557 0.22790566 0.37582833 0.115092784 -0.28681996 -0.13589871 0.32948452 0.63876647
0.16539845 0.13572754 0.086608425 0.46104002 0.05154226 0.31161025 0.2658122 0.10757445
-0.08104332 -1.1214573 -0.007908133 0.14798576 -0.20135875 -0.050618812 0.3612263 0.29404664
0.039474484 0.4713693 0.05697376 0.032304 -0.33481017 0.55266804 -0.15350564 -1.4687843
0.18623939 0.062336493 -0.5404577 0.079497576 -0.22981107 0.29618296 0.36003223 -1.0535568
-0.37375602 0.17133693 0.34805202 -0.7155191 -0.03002633 -0.87270343 -0.16909611 -0.009575633
0.22594576 -0.10913044 -0.09655168 -0.79899204 -0.45899448 0.37567037 0.3764996 0.5039521
-0.45918903 0.16060364 0.19474263 0.09821124 0.059225596 -0.40762278 0.18100034 0.23158762
00000000: 26ee cabd 86b6 47bd 324b 32be dce8 893e
00000010: 2997 9d3e b4d7 c83e 5dd9 bdbe beac 853e
00000020: 8687 113e 7eea b1be 1339 ee3d 2375 8fbe
00000030: c66e 863e 4c3c 5abe 6dbd 533e ded9 03be
00000040: c883 8abd 397a c73d d002 3e3d 5ad9 443d
00000050: 0fad 5abf 764d c93d 4119 f3bd 1674 53be
00000060: 2d4b 0abf 5597 573d c9a1 c1be 7c67 60be
00000070: 14a6 f33d 3039 393f 7c7f 57bf 51cd 4fbe
00000080: bc8b b6bd 996d a0bd e9e2 303f 4ea7 58bf
00000090: 414a eb3c be63 8cbf 9ddc be3e f32c 763d
000000a0: b7fc 75be b4d0 bebe 3b3f 373f 2ee9 af3d
000000b0: 2f40 103f a6c0 f4be c234 3abe ab39 6f3e
000000c0: c8fe 543e f529 c0be c4e3 2dbf b530 ecbb
000000d0: b39c f0bb 5538 9d3e 0e2c e83e 1767 0b3e
000000e0: 8570 60be af7b b93e 1261 0940 9519 2fbe
000000f0: 7eb4 493f 0248 15bf 4cc1 2b3f 3608 14c0
00000100: c793 933f b861 aa3e 546e 08c0 0fad 01bf
00000110: d2f1 cb3d 2908 a7be a01d 79be f855 703d
00000120: 68e5 e8bc 9bfa c53f 80cc 8c3f 7a6a 3f3f
00000130: b9d1 273c e4ae 7bbf 95df 1740 d516 e83e
00000140: 776b ff3f 574e b3bd ee80 dabe 349f 7d3f
00000150: 0bf4 b23f acb9 4b40 4357 aebf 2ffc 4d3e
00000160: ed2d aabf 6052 763e add3 8a3f dfe2 9c3d
00000170: fcb3 d9be 0662 8dbe 537d de3d 6828 093f
00000180: 7b53 c63d 6272 1e3f 8630 42be 1540 093e
00000190: 28cb 01be 37c7 1b3e d30d 82bf b47b 0e3e
000001a0: 8f38 32bf 961a f63d 92e2 023e fbb7 c8bd
000001b0: ed1f 05bd 0769 a33d 3807 4a3d c856 e23e
000001c0: ca8a 0cbf 15e8 6d3f 5980 153d 692d d03d
000001d0: aa46 0cbf ea2a 8b3e 33e9 a13d 5ee0 b03e
000001e0: 334a 453e fbbe 993e 3198 66bd 4eb6 7f3e
000001f0: 8acf 1dbd 9d54 3dbe a7a5 eebd b4fc a63d
00000200: 7d5c 89bc 80af 3fbe c36c 0b3e 80f3 4ebe
00000210: 8f04 783e ab62 b7bd 4a0d 3fbd 34d5 123d
00000220: ac48 f63c 40b7 a93d 3835 463d 65b7 72bd
00000230: aa41 a4be 1688 843e 38b2 04be 336b f5bc
00000240: 9cb2 bf3d b59d b2be f378 5abe c5e8 b53f
00000250: b2b6 38bf 3dad 9f3e 7de1 6cbc 8e7a ffbe
00000260: 99d8 df3c 80f7 82bf 48b7 1ebe 5ebe 353e
00000270: 110f a1ba 6346 92be 43b9 93be 7a98 90be
00000280: 6178 e3bd 1f4e abbe 268b cabe 5ff8 9d3d
00000290: 3c77 bfbd 6b27 bbbe 8ec4 b13e 8519 3dbd
000002a0: ff81 83be 0f0e b23c e9bc 53bf 3ea3 a73e
000002b0: 9a66 093e 52b3 79bc db6c 1f3f 776f 1fbf
000002c0: d594 1fbe b90a a0be ac2e 81bd 3219 f7bd
000002d0: a65b 6d3e c933 c3be a354 9e3e 28db 5abe
000002e0: 889e 653c fe6e c43d afce d23d 900a e2be
000002f0: 1eef 653e 73ba 83be 3205 bebf 3a7c 613d
00000300: 0d9c c8be 1a60 693e 926c c03e c4b5 eb3d
00000310: 11da 92be 0829 0bbe 32b2 a83e 3386 233f
00000320: 365e 293e 29fc 0a3e c25f b13d 700d ec3e
00000330: fa1d 533d 618b 9f3e 8918 883e fe4f dc3d
00000340: 0afa a5bd ea8b 8fbf 1d91 01bc 9489 173e
00000350: fd30 4ebe ac55 4fbd a7f2 b83e 488d 963e
00000360: ffaf 213d 5157 f13e 515d 693d 3351 043d
00000370: 3d6c abbe a77b 0d3f 9530 1dbe 2001 bcbf
00000380: 8ab5 3e3e 8d54 7f3d 705b 0abf a0cf a23d
00000390: 9853 6bbe 4ba5 973e 2556 b83e f3da 86bf
000003a0: f35c bfbe f372 2f3e e033 b23e 422c 37bf
000003b0: c7f9 f5bc 7e69 5fbf 8827 2dbe 1ee3 1cbc
000003c0: 535e 673e c87f dfbd e3bc c5bd be8a 4cbf
000003d0: 5301 ebbe de57 c03e 8ec4 c03e 0103 013f
000003e0: d31a ebbe 4875 243e 9d6a 473e f922 c93d
000003f0: 8a96 723d efb3 d0be 2758 393e 4e25 6d3e

hidden3.bias f4 [20]
0.18493739 0.1718413 0.74137545 -0.16916987 0.2025455 0.07079978 -0.19948432 0.09696203
0.13755123 0.044513132 0.22464234 0.055094387 -0.021071102 0.0011900115 0.05147571 0.08063611
0.15090168 0.18791646 0.006647031 0.089386776
00000000: 3a60 3d3e 2af7 2f3e c8ca 3d3f de3a 2dbe
00000010: 1668 4f3e 7aff 903d 9e45 4cbe 0794 c63d
00000020: 3bda 0c3e 6753 363d a408 663e a7aa 613d
00000030: 4e9d acbc 29fa 9b3a 32d8 523d 8b24 a53d
00000040: f885 1a3e 2c6d 403e 56cf d93b 6a10 b73d

hidden4.weight f4 [12, 20]
0.42998335 -0.25548685 -0.19323172 -0.7818863 0.40359473 -0.6715922 -0.874202 0.72528315
-0.42390236 -0.9325865 0.42876747 -0.99388194 0.44645151 -0.8629227 -1.1723198 0.07013531
-0.07022262 0.17146201 -0.7931687 -0.0068629887 0.30880252 -0.2728829 0.044924926 -0.5288292
0.24939017 -1.3948201 -0.9197602 1.0330771 -0.56561303 -0.8660223 0.21985471 -0.9149284
0.53076 -0.5325933 -1.3841069 0.2213772 0.0882904 0.46310106 -0.6865436 0.4723864
0.08249359 -0.29695937 0.2335367 -0.80917484 0.29834417 -0.86496216 -0.72597 0.5938805
-0.44843903 -0.97868955 0.5824385 -0.6588284 0.6671704 -0.6691902 -1.1047108 -0.12831724
0.29235566 0.06752506 -1.0898312 0.16057093 0.037673406 0.7178688 0.600537 0.43874323
-0.001408302 0.5318309 0.6865095 -0.62049896 0.7334276 0.77234215 -0.1548272 0.61995834
-0.35016918 0.21653949 0.99322724 0.5016669 0.3746935 0.001178467 0.5401672 0.07188599
0.005830391 0.71854407 0.32022467 0.52341855 -0.041289397 0.6402962 0.7603617 -0.5663998
0.55610937 0.76300836 0.074428536 0.8609711 -0.4617974 0.583262 1.1646104 0.16414624
0.3051323 -0.056082297 0.5580169 0.17291217 0.11428076 -0.51064014 0.31595147 -0.3740994
0.4381303 -1.1474923 -0.7411071 0.81951565 -0.49393174 -0.9507184 0.5207218 -0.94406176
0.43211874 -0.24534701 -1.437072 0.24018341 0.038899045 0.19027404 -1.0766556 0.19120641
-0.3171904 0.5416859 0.5103284 0.36043665 -0.3718436 0.47266194 0.7142533 -0.86756116
0.6997309 0.78064233 -0.21001652 0.43168196 -0.14362611 0.42660832 1.1822542 0.43433487
0.5116445 0.14046755 0.5761294 0.23593117 0.38261575 -0.09390585 -0.12736335 -0.9524497
0.17603327 -1.0185741 -1.1266677 0.45428687 -0.3045043 -0.85657793 0.48559287 -0.955021
0.35125676 -0.5285251 -0.7082401 -0.35497987 -0.2596351 0.34077752 -0.9692602 0.26550174
0.52818334 -0.23973766 -0.22218943 -0.42069486 0.13521893 -1.2676429 -1.1936853 0.9772122
-0.43408692 -0.77601296 0.41958693 -1.5579195 0.40817082 -0.38888043 -1.4175296 -0.035325795
0.45339325 0.061435513 -0.6580111 0.05758096 0.42427638 -0.084414676 0.10106459 -0.88192374
0.39056623 -0.89240795 -0.35197398 0.7302849 -0.11097111 -0.5923081 0.17407608 -1.2703116
0.09026405 -1.0311638 -0.8746401 -0.5160509 -0.4279468 0.24405272 -0.24471815 0.09276931
0.17525856 -0.5124994 0.24028154 -0.9425122 0.24326889 -1.2505774 -0.2450792 0.73383576
-0.41497102 -0.8339533 0.19244458 -1.026579 0.2647394 -0.7435241 -1.4510062 -0.27175033
0.24834089 0.3186515 -0.75698465 0.26509538 0.44884947 -1.0350373 -1.0133525 0.2717607
0.39692715 -0.13529895 -0.7981318 0.12009057 0.2537504 0.27428144 -0.270743 -0.28028074
0.39997146 0.4492376 1.4571517 -0.28139237 -1.2197266 0.20543697 0.6555759 -0.34260133
00000000: c726 dc3e 2ccf 82be 89de 45be b329 48bf
00000010: f8a3 ce3e 77ed 2bbf b4cb 5fbf 28ac 393f
00000020: bb09 d9be fdbd 6ebf 6987 db3e 0c6f 7ebf
00000030: 4b95 e43e 81e8 5cbf 930e 96bf 1aa3 8f3d
00000040: e1d0 8fbd bd93 2f3e 1b0d 4bbf ece2 e0bb
00000050: 5d1b 9e3e 4fb7 8bbe 3303 383d 5a61 07bf
00000060: 2360 7f3e 7789 b2bf 6875 6bbf df3b 843f
00000070: 04cc 10bf a3b3 5dbf 9821 613e bf38 6abf
00000080: e3df 073f 0958 08bf 6a2a b1bf b4b0 623e
00000090: 99d1 b43d 951b ed3e 52c1 2fbf a1dc f13e
000000a0: 66f2 a83d 0f0b 98be 3f24 6f3e 1526 4fbf
000000b0: 91c0 983e 296e 5dbf 2bd9 39bf 8d08 183f
000000c0: cd99 e5be 668b 7abf b11a 153f faa8 28bf
000000d0: aecb 2a3f 0d50 2bbf 2a67 8dbf 9865 03be
000000e0: a4af 953e 944a 8a3d 977f 8bbf b56c 243e
000000f0: 6e4f 1a3d 40c6 373f cbbc 193f f4a2 e03e
00000100: c696 b8ba 1226 083f 16bf 2f3f 05d9 1ebf
00000110: e9c1 3b3f 37b8 453f 068b 1ebe 97b5 1e3f
00000120: 6049 b3be 87bc 5d3e 2444 7e3f 3e6d 003f
00000130: d4d7 bf3e ca76 9a3a 6648 0a3f f638 933d
00000140: dd0c bf3b 81f2 373f 7df4 a33e c2fe 053f
00000150: 121f 29bd 74ea 233f 10a7 423f 94ff 10bf
00000160: 2f5d 0e3f 8454 433f fd6d 983d 9a68 5c3f
00000170: b570 ecbe a950 153f f411 953f f415 283e
00000180: 4d3a 9c3e 8db6 65bd 32da 0e3f e30f 313e
00000190: 080c ea3d 50b9 02bf 64c4 a13e f589 bfbe
000001a0: 9d52 e03e 07e1 92bf 32b9 3dbf c7cb 513f
000001b0: 9fe4 fcbe 4862 73bf 064e 053f 08ae 71bf
000001c0: ab3e dd3e 3f3c 7bbe faf1 b7bf a4f2 753e
000001d0: 9b54 1f3d 33d7 423e dacf 89bf 9dcb 433e
000001e0: c866 a2be edab 0a3f e2a4 023f 278b b83e
000001f0: 4962 bebe bf00 f23e 4ed9 363f 7d18 5ebf
00000200: 9021 333f 2dd8 473f 920e 57be 6b05 dd3e
00000210: b912 13be 686c da3e 1b54 973f 2461 de3e
00000220: 22fb 023f bad6 0f3e 377d 133f f197 713e
00000230: 36e6 c33e b651 c0bd 8a6b 02be bed3 73bf
00000240: 1142 343e a360 82bf a636 90bf 4a98 e83e
00000250: fde7 9bbe b148 5bbf a19f f83e 427c 74bf
00000260: edd7 b33e 6c4d 07bf 394f 35bf ecbf b5be
00000270: e4ee 84be 647a ae3e 7021 78bf d8ef 873e
00000280: 0637 073f ca7d 75be a085 63be 5165 d7be
00000290: d576 0a3e 1f42 a2bf aeca 98bf 942a 7a3f
000002a0: a440 debe c9a8 46bf 19d4 d63e e869 c7bf
000002b0: c4fb d03e 561b c7be 9c71 b5bf c8b1 10bd
000002c0: 2923 e83e cea3 7b3d 6a73 28bf 03da 6b3d
000002d0: c13a d93e 9ae1 acbd f4fa ce3d c1c5 61bf
000002e0: 4cf8 c73e d974 64bf ef35 b4be f4f3 3a3f
000002f0: d244 e3bd 81a1 17bf 0041 323e 9299 a2bf
00000300: 5cdc b83d 2dfd 83bf 6ae8 5fbf e91b 04bf
00000310: d81b dbbe f5e8 793e 6597 7abe d6fd bd3d
00000320: fb76 333e 2933 03bf 5d0c 763e 7b48 71bf
00000330: 7b1b 793e ec12 a0bf 0bf6 7abe a9dc 3b3f
00000340: 1577 d4be f77d 55bf 3110 453e f166 83bf
00000350: ec8b 873e 9857 3ebf 92ba b9bf dc22 8bbe
00000360: 134d 7e3e 4a26 a33e bfc9 41bf 95ba 873e
00000370: 99cf e53e 1a7c 84bf 89b5 81bf 3824 8b3e
00000380: 093a cb3e cf8b 0abe 5e52 4cbf 0bf2 f53d
00000390: 93eb 813e 9e6e 8c3e d49e 8abe f580 8fbe
000003a0: 0fc9 cc3e 7902 e63e f283 ba3f a912 90be
000003b0: 0020 9cbf 125e 523e d2d3 273f 7169 afbe

hidden4.bias f4 [12]
0.36588886 -0.11224806 0.19010688 0.46329007 0.048148856 -0.1008684 0.24702486 0.30563903
0.076787606 0.3409923 -0.019625703 0.23718403
00000000: c955 bb3e 50e2 e5bd 61ab 423e 5b34 ed3e
00000010: bc37 453d 1794 cebd 16f4 7c3e b87c 9c3e
00000020: d242 9d3d 8b96 ae3e 15c6 a0bc 5fe0 723e

hidden5.weight f4 [4, 12]
-0.20380554 0.18588135 0.1091274 -0.24765196 0.12079549 0.21996534 -0.11561984 0.12178299
-0.2876301 0.059397668 -0.083613604 0.21503502 -0.14969642 -0.2789342 -0.28790796 -0.20202371
-0.13592327 0.044638574 0.094415635 0.082696915 -0.23639706 0.098718196 0.05743894 -0.094328016
-0.024656564 0.09157455 -0.27506998 -0.03733045 -0.24035515 -0.07023847 -0.28437158 -0.06174189
-0.27947676 -0.016269654 -0.0281713 0.11777383 -0.059016094 0.010023236 0.14496017 0.099202484
0.00063970685 -0.083662614 0.17034033 -0.23038109 -0.08721772 0.13822693 0.05685532 0.10067248
00000000: 66b2 50be ae57 3e3e 307e df3d 7a98 7dbe
00000010: a063 f73d 983e 613e 18ca ecbd 5c69 f93d
00000020: 4144 93be f84a 733d 9c3d abbd 2432 5c3e
00000030: 054a 19be 77d0 8ebe ac68 93be 4edf 4ebe
00000040: 782f 0bbe f0d6 363d fc5c c13d 005d a93d
00000050: 1212 72be c42c ca3d 1845 6b3d 0c2f c1bd
00000060: 90fc c9bc 708b bb3d f9d5 8cbe d0e7 18bd
00000070: a91f 76be 30d9 8fbd 2799 91be 10e5 7cbd
00000080: 9417 8fbe f047 85bc 80c7 e6bc 6833 f13d
00000090: dcba 71bd 8038 243c 7070 143e ac2a cb3d
000000a0: 00b2 273a 4e57 abbd b26d 2e3e 05e9 6bbe
000000b0: 349f b2bd 5c8b 0d3e 20e1 683d 602d ce3d

hidden5.bias f4 [4]
-0.0662725 0.26931208 -0.104440406 0.22532779
00000000: e0b9 87bd 46e3 893e dae4 d5bd 54bc 663e

predict.weight f4 [2, 12]
-1.2733122 -1.4944241 -1.238706 0.5848727 0.78558326 -1.436504 0.5462316 -1.5803305
-2.0670786 -1.6806662 -1.317522 -2.1610174 1.6654294 1.471114 1.4978557 -0.48547935
-0.5979339 1.3016608 -0.773187 1.462758 1.9560903 1.2664825 1.2118311 2.0823727
00000000: e5fb a2bf 4a49 bfbf eb8d 9ebf 38ba 153f
00000010: fc1b 493f 5ddf b7bf d6d5 0b3f 4548 cabf
00000020: 044b 04c0 1220 d7bf 90a4 a8bf 1c4e 0ac0
00000030: ca2c d53f 774d bc3f bcb9 bf3f c090 f8be
00000040: 3212 19bf d29c a63f 95ef 45bf a73b bb3f
00000050: 2b61 fa3f 191c a23f 481d 9b3f 9845 0540

predict.bias f4 [2]
0.30535305 -0.23858821
00000000: 3c57 9c3e 7850 74be
